pth/model.pth (torch, 817391 bytes, 77 tensors)

conv.weight f4 [16, 3, 3, 3]
00000000: 4c51 e43e 97fe 28be 236f cabe ecae 94bf
00000010: f675 7540 ddcc d03b 91a5 223f 84d4 72bf
00000020: 383a 6bbf 08d1 91bf a7fd 5cbf 55c8 1dbf
00000030: 1082 29c0 2827 6340 3a76 943e fa24 8b3e
00000040: 7f14 aabf 43b2 49be 392f 86be 843e 8bbe
00000050: c3be 3abe b56f 9abf bfe2 6b40 658f 9d3e
00000060: 5fc6 333f 434d 3a3e 0157 9fbe 555c ae3f
00000070: 2ceb 1a40 7671 423f 526b 0e40 42d8 0340
00000080: 2cc4 333f 9c39 35be e758 16bf df78 95bf
00000090: 03d3 05c0 c543 1fc0 d715 a9bf 8fed 16bf
000000a0: f178 dbbf a710 5abf 2d5c a2bd c1eb 5cbf
000000b0: f2aa ab3b 80f6 b5bf 1bde abbf c32b 26bf
000000c0: 7538 723f e5e0 cf3e ba76 4b3f a4e4 d23f
000000d0: 2b09 c63f 9dd4 933f d88b 5fbf a059 d4be
000000e0: f2f5 07bf 723b 0abf d45f 96be 0302 ecbe
000000f0: 17c9 34bf c073 1ebf 7bf0 0dbf 2058 5fbf
00000100: ed49 23bf 994e d5be 85ef 00bf cadb bfbe
00000110: de1e 8abe 31ed e0be 962b e0be c57b 39bf
00000120: a799 34bf 9775 c1bc f428 b53d df02 47be
00000130: 825a c63e 4bbb cf3e 6481 c1be 1362 a0be
00000140: 502a 81be 461d 393f 2b2f 95bf cdc6 563f
00000150: da96 1840 cbf6 64bf 61f9 34bf 26bc c03d
00000160: de5b 31bf 3a9e 053e faa0 753f 2c57 e3bf
00000170: af73 78b9 147f 3740 a521 aebf 57e9 dfbf
00000180: fd75 de3e 730c 67bf 9a45 2a3e 6a06 c93f
00000190: c422 a8bf 16bd 84bf 83e7 5740 466f 01bf
000001a0: 9b4f f0bf 8b05 893f 9987 34bd a746 a1be
000001b0: 07d3 42bf d4aa 8cbe 5e11 013f 92c5 61bf
000001c0: 6c6a 93bf 786a c33e a135 a8bf 5ace abbf
000001d0: fdbc 05bf 2f30 853f f94e e93f d25d 633f
000001e0: 5e65 253f 5e02 623f 9bd4 9d3f 62bd abbf
000001f0: 9640 4cbf 0320 91be 7ff7 8040 3e7c 6f40
00000200: ac56 8cbf d61b 2940 7b1b 1c40 0423 a93e
00000210: 8d72 2fbf 4df9 f4be cd5f 87bf 8d33 b73f
00000220: 6acc 6e3f 66b7 043f 5d85 ecbe 11cf 8e3e
00000230: c6b8 943f 32c5 743e 2394 053f 8a62 9f3e
00000240: 2ae4 bcbf 424c 88c0 6324 84bf 039e 85c0
00000250: 705e 96c0 0ca6 46bf c19f 683f e118 323e
00000260: 9721 b23b df79 7f3e 7337 18bf 51a8 d43d
00000270: b955 87bf df82 62bf 5acd 893e 4508 ac3f
00000280: acb3 9b3f 4256 273f 2880 a93f f287 65bf
00000290: b870 3b3f 2e97 1840 6e18 51c0 52c4 efbf
000002a0: e999 603f d1cf d8bc 9bef 41be 7f72 2e3f
000002b0: 7c8c dfbf 672f 23be 4d9e 003f 031f 92c0
000002c0: 8235 34c0 784c 85bd e34c 0dbf 17a8 a3be
000002d0: 1a37 383f efad 0c3f 8c53 df3f 7e60 133f
000002e0: 4a47 00c0 7cc2 84be bfe5 463e b32b 323f
000002f0: 9979 3f3f 6141 ef3e 2b97 383e b22f 8c3e
00000300: 46f8 0b3f ea56 9d3e 3ef3 143f ee62 a13d
00000310: 874a 063e 4a6b b3bd f74b 45bc 8d7f 783e
00000320: 2b1e 3b3e d4f8 303e 4a22 853e 612a e13e
00000330: 3021 ecbe ec80 0dbd 75ee 0ebe de0d 8d3d
00000340: c0e8 4f3e c6b7 173f 6bc7 1f3e 75c9 063f
00000350: 34aa e73e 0639 bcbe 0516 11be ffe2 5a3e
00000360: 1b1b 31bf 65a1 25c0 13d0 b2bf 2140 4abf
00000370: cbe9 14c0 c022 b4bf e28e 4d3f 7d1a 6b3f
00000380: 0150 053f 87d0 a03f 4fc5 a8bc 1ec3 203f
00000390: d491 db3f 20b5 7a3f bdb8 8c3f 8a19 0d40
000003a0: 7c86 2e40 1183 fe3f 5aaa b8bd e576 babf
000003b0: 8545 c73e 67d1 6ebf a12b 0ec0 f919 04bf
000003c0: 11ed 25bf ff98 11bf 5939 a93d 4080 19bf
000003d0: 304e 3cbf 710a 50bf c485 ccbe 9f01 203e
000003e0: 3efe 8cbf b0ad 66bf e8ab a0bf f444 e3bf
000003f0: a22c 0fbf ea3b 75be 2392 c1bf f00a 083f
0.44593275 -0.16503368 -0.39537916 -1.1615882 3.8353248 0.006372078 0.63533884 -0.94855523
-0.9188571 -1.1391916 -0.8632454 -0.6163381 -2.6485634 3.549265 0.2899645 0.27176648
-1.3287505 -0.19696908 -0.26207903 -0.27196133 -0.18236832 -1.206534 3.6857145 0.30773464
0.70224565 0.18193536 -0.31121066 1.3621927 2.4206038 0.7595438 2.2253003 2.0600743
0.7022121 -0.17697757 -0.58729404 -1.1677512 -2.0910041 -2.4885113 -1.320979 -0.58956236
-1.7146283 -0.8518166 -0.079277374 -0.8629723 0.005238884 -1.4215851 -1.3427156 -0.64910525
0.94617397 0.40601268 0.7947804 1.6476026 1.5471548 1.154926 -0.8732276 -0.41474628
-0.5310966 -0.53996956 -0.29369986 -0.46095285 -0.7061934 -0.6189537 -0.5544507 -0.87243843
-0.63784677 -0.41661528 -0.5036548 -0.37472373 -0.26976675 -0.43930963 -0.43783253 -0.7245448
-0.70546955 -0.023615642 0.08845702 -0.19434689 0.38740927 0.4057258 -0.3779403 -0.31324825
-0.25227594 0.7231029 -1.165502 0.83897096 2.3842072 -0.89439076 -0.7069302 0.094108865
-0.69280803 0.1304864 0.95948756 -1.7760978 -0.00023694219 2.8671312 -1.3604017 -1.7493085
0.43449393 -0.9025337 0.16628113 1.5705082 -1.313561 -1.0370204 3.3735054 -0.50560415
-1.8774294 1.0704817 -0.04407463 -0.31499216 -0.7610325 -0.27474082 0.50417125 -0.88192093
-1.1516852 0.38167167 -1.3141366 -1.3422348 -0.522415 1.040533 1.8227226 0.88815033
0.646078 0.8828486 1.2330507 -1.341717 -0.7978605 -0.28344736 4.030212 3.7419581
-1.096395 2.642324 2.4391773 0.33034527 -0.68534166 -0.4784645 -1.0576111 1.4312607
0.9328066 0.51842344 -0.46195498 0.27892354 1.1618888 0.23903349 0.52179164 0.31129867
-1.475713 -4.259309 -1.0323604 -4.1755385 -4.699028 -0.7759712 0.90868765 0.17392303
0.005436133 0.24948834 -0.5945961 0.10383666 -1.0573035 -0.88480943 0.26914483 1.3440024
1.2164207 0.65365994 1.3242235 -0.8966056 0.7321887 2.3842273 -3.267116 -1.8731787
0.8773485 -0.026466282 -0.18939058 0.6814346 -1.7464747 -0.15936051 0.5024155 -4.5662856
-2.8157659 -0.06508726 -0.55195445 -0.3196418 0.7195908 0.549529 1.7447371 0.5756911
-2.0043511 -0.2592963 0.19423579 0.6959793 0.7479492 0.46729568 0.18026416 0.2738014
0.5467571 0.30730373 0.5818366 0.078801975 0.13114367 -0.08760698 -0.012042037 0.24267407
0.18273227 0.1728242 0.26002723 0.43977645 -0.4611907 -0.034546778 -0.13958152 0.068874106
0.20303631 0.5926479 0.15603416 0.5265115 0.45247042 -0.36762255 -0.14168556 0.21375655
-0.69181985 -2.5879757 -1.3969749 -0.790041 -2.3267696 -1.4073105 0.80296147 0.9183729
0.520752 1.2563637 -0.020601897 0.62797725 1.7153878 0.97932625 1.0993878 2.2046838
2.7269583 1.9883748 -0.09016867 -1.4567534 0.38920227 -0.9328827 -2.221413 -0.5160213
-0.6481486 -0.5687408 0.08262891 -0.5996132 -0.73556805 -0.8126593 -0.39945805 0.15625618
-1.1015089 -0.90108776 -1.2552462 -1.7755418 -0.5592748 -0.23948637 -1.5122722 0.5314169

bn.weight f4 [16]
00000000: 8447 f63f a8a4 ad3f 07d6 5ebd a49d 1340
00000010: fa3e 9e3f e406 aa3f 3c0d 1a40 3219 a53e
00000020: b278 e53f a1d9 333f 506e 0340 4be1 463f
00000030: 20ef 0440 96d5 0640 669d 9b3f 384c 643e
1.9240575 1.3565874 -0.05440333 2.3064966 1.2362969 1.3283353 2.4070578 0.32245785
1.7927458 0.7025395 2.053608 0.7768752 2.077095 2.1067863 1.2157409 0.222947

bn.bias f4 [16]
00000000: 7c75 0e40 fc22 b03f 05a1 7abf 8648 923f
00000010: 6246 6d3e 46f2 353f 29cd 95bf 5c0b 97bf
00000020: 169a 9d3f 0fc3 11bf 5b59 3840 09e9 2cbe
00000030: 8389 0240 3ae6 bd3f 6606 7c3f cb9f 59bf
2.2259207 1.3760676 -0.97901946 1.1428382 0.2317138 0.71072805 -1.1703235 -1.1800342
1.2312648 -0.5693826 2.8804538 -0.16885771 2.039643 1.4835885 0.98447263 -0.8500945

bn.running_mean f4 [16]
00000000: 1f60 0b3f 376f 8a3e 2507 89c0 9445 c23b
00000010: 66e9 4c40 44d8 70c0 0c58 44c0 1a78 f73f
00000020: 42f2 aabd a195 ebbf 348c 0d3e d45d 6e3e
00000030: d7e9 813e 80e7 ba3d e271 80bf 0517 6cc0
0.54443544 0.27037975 -4.282122 0.0059287045 3.2017455 -3.7631998 -3.067874 1.9333527
-0.08346988 -1.8405038 0.13823014 0.2327798 0.25373718 0.09126186 -1.0034754 -3.688905

bn.running_var f4 [16]
00000000: dad7 9d3f 1502 8e3f e79e d740 e3b5 6a40
00000010: 516c 1841 4d21 0041 db62 ca40 a150 ca3f
00000020: 6b40 1b40 4bd4 5540 d69c f93e b096 a13f
00000030: f576 d43f dd6b 8340 4e44 7740 aa3e a340
1.2331498 1.1094385 6.7381473 3.6673515 9.526444 8.00813 6.3245673 1.5805856
2.4258068 3.3410823 0.4875247 1.2624111 1.6598803 4.106917 3.863544 5.1013994

layer1.0.conv1.weight f4 [16, 16, 3, 3]
00000000: b9f6 063f 2dd1 0b40 d015 3dbf 7b9c 49c0
00000010: b063 c0c0 abef febe 6b50 2740 ae27 dd3f
00000020: e410 d23f a32d c93e 1e6f 873f aba8 1ebe
00000030: cb06 133f 71bc 06bf bfdf 14c0 14b8 40bf
00000040: ea96 64bd 2062 623e 0b50 833e cae9 b53e
00000050: e61a 843e 526c 423d 6c24 493d 8181 5dbd
00000060: 2b25 4abe ec40 8dbe 779b 13bc 7d5d 18bf
00000070: e8d5 133f aff6 dbbc 773b b33f 7535 a83e
00000080: 3fea 03c0 f4b9 7abd 828c cc3f c14a c93f
00000090: 70a7 363f f948 4dbf 8018 8dbf 32be 3d3f
000000a0: d8a2 223f 7494 61be c8ae b33f 0c19 cf3d
000000b0: 12e8 33bf 1571 c03e 55d4 e13e 2a24 b6bf
000000c0: 2227 2e3f ace2 d83f 3136 0b3f f588 53be
000000d0: becc 313e 2606 6bbf 4225 e0bd f62c d8be
000000e0: 7a8a 6dbf c1a3 3640 5409 3440 2648 16c0
000000f0: 74b1 25bf 42d3 06be 0da7 3ac0 e5b0 233f
00000100: 631f 283f 2059 8d3e 3e7c ea3d f2f7 923d
00000110: fe84 6d3c 450b a03e 885f d63e fb5e d13e
00000120: a2d6 91bf f1dd 0cc0 c8bc 85bf ce3d fe3e
00000130: 2d0f 3a3f 5d29 3b3f 51e2 28bf ce12 a33f
00000140: ec9c e0be ace7 21be f4bd dabf a1e5 5abf
00000150: 28d8 da3d f2c0 3dc0 ce31 13bf f043 e63f
00000160: ad9b cfbd 78da c93f 3a6b 943f 6563 09c0
00000170: 663c e73e 67a5 8ebf a5b2 0740 20e1 79bf
00000180: 96ba f8be 4d84 193f a20c f13c 8be5 5abf
00000190: 63de 04be 73af 973e ae17 eebe cd6d 25bf
000001a0: f7a8 5c3c 8696 aa3f e2ca 863f 33b8 e93f
000001b0: 6fbb 9d3f cef2 2540 2c73 b5bf b249 10c0
000001c0: 432d 94bf a7f7 3c40 2d57 483f c1a9 0c40
000001d0: dfea 8fbf a895 f73d 0cb7 91bc 644d 5dbf
000001e0: c212 413f d505 6040 7bd6 8c3f 05c2 ffbf
000001f0: fec8 22c0 f9f2 ecbf feec 893f 441b 79be
00000200: 327c aabe 7444 013f 75db d9be 2d1c 4cbf
00000210: 11b7 953f e641 28bf 469e a9bf af9a b23e
00000220: 5ddd c43e b2a4 2c3f ce24 963e ad7d 6c3e
00000230: fc01 9f3e 1588 413e e4fe bdbe 54b1 33bd
00000240: b5ba 463e 5758 3fc0 f0d8 123f 9f4a 283f
00000250: a077 2c40 149d 3fc0 e3e3 babf 6fb5 4b3f
00000260: c7ba 24bf 5bdb d9bf 6016 09c0 a645 93be
00000270: d8e1 5abe 68b4 31bf a756 bc3e 1df4 f33f
00000280: 6915 0e40 d916 b83f 2e77 9a3d 0485 673e
00000290: fb44 b83e 86c9 003f 0151 193f b19c 1e3f
000002a0: 5cbb b13e a4dd a13e 4113 853e c931 dbbf
000002b0: 19fc 68bf 9408 12bf bbe5 d1bf 38ad cdbe
000002c0: 75c3 aa3e 4e22 683e f23b cdbf 22ee d5be
000002d0: 4dc2 0ebf 86e8 c93e 8916 c73e e525 613e
000002e0: e2bf 7dbe 570f 5b3f 45cf 843f b4dd 193f
000002f0: e926 853f a4e5 48bf e412 c0bf e4c4 ad3d
00000300: fa4d 6d3f e63c 423e fcba 0abd 8049 0d40
00000310: 3513 d33f d8fc d23f 71c5 4e3f 982c 273f
00000320: 6649 35c0 4e41 723f 3b0d 2fbf 1fe8 31bf
00000330: f970 81be d172 d0bf 7073 97bf e822 a1be
00000340: 3eb9 80be c6aa f4bd 87b9 d93d e25c 5d3e
00000350: b41b b13e bf0d b63d c352 a5bc e57e 243e
00000360: 5363 8c3f ee70 2840 e441 bb3f 40be d0bf
00000370: e9ff c5bf 13fc 6dbf 36fc a3bf c6b9 f8bf
00000380: 65ee d93e 217c d8be fb30 413f 2fe0 0c40
00000390: c977 e4bf 94a8 0b3f 4cd7 8c3f 9082 12c0
000003a0: 29ef 80bf 62b0 3c3f 0e0a e23d 8512 5e3f
000003b0: 4410 1dc0 178c 4f40 92a5 47c0 58e9 5d40
000003c0: 1751 113f efab 0ec0 7883 a63f 3830 8f3e
000003d0: f33a 293f 7a3d df3e 6844 ebbe 0dce d23f
000003e0: 59b9 a33f c610 02c0 8864 543e f82b 023d
000003f0: a4a0 c6be 9a6f e5bf f8b9 68bf 38e3 873f
0.5272022 2.184642 -0.7386141 -3.1501758 -6.012169 -0.49792227 2.6142833 1.7277734
1.6411405 0.3929263 1.0580785 -0.15494029 0.5743224 -0.5263129 -2.3261564 -0.7528088
-0.055807985 0.22107744 0.25647005 0.3552993 0.25801772 0.047466584 0.049107 -0.054078583
-0.19740741 -0.27588594 -0.009009234 -0.5951765 0.5774827 -0.026851026 1.4002522 0.32853284
-2.0611722 -0.061212495 1.598038 1.5725938 0.7134924 -0.8018947 -1.1023102 0.7411834
0.6352973 -0.22029287 1.4037714 0.10112199 -0.70275986 0.37586275 0.4410731 -1.4229786
0.6802846 1.6944175 0.54379565 -0.20657714 0.17363259 -0.91806257 -0.10944606 -0.42221802
-0.92789423 2.8537447 2.8130693 -2.3481536 -0.64723897 -0.13166526 -2.916446 0.63941795
0.6567289 0.2760706 0.114494786 0.07176198 0.01449704 0.31258598 0.4186976 0.40892777
-1.1393626 -2.2010462 -1.0448236 0.49656528 0.72679406 0.7310999 -0.6597033 1.2740114
-0.43869722 -0.15811032 -1.7089219 -0.85506636 0.1068576 -2.9649014 -0.5749787 1.7989483
-0.10137115 1.5769796 1.1595223 -2.1466916 0.45163268 -1.1144227 2.1202786 -0.9760914
-0.48579854 0.599675 0.02942497 -0.85506505 -0.12975459 0.29626045 -0.4650244 -0.6462067
0.013468019 1.3327186 1.0530665 1.8259338 1.2322825 2.5929446 -1.4175773 -2.254498
-1.1576313 2.9526155 0.7825802 2.197861 -1.1243552 0.120890915 -0.017787479 -0.86446214
0.7541925 3.500356 1.1002954 -1.9981085 -2.5435176 -1.8511649 1.0775449 -0.24326807
-0.33297879 0.50495076 -0.42550245 -0.7973049 1.1696492 -0.65725553 -1.3251426 0.3488364
0.38450137 0.67438805 0.29324955 0.23094817 0.310562 0.18899567 -0.3710853 -0.043870285
0.1940716 -2.9897668 0.5736227 0.6573886 2.6948013 -2.9939623 -1.4600796 0.7957372
-0.643475 -1.7020067 -2.1419907 -0.28764075 -0.21375215 -0.69415903 0.3678486 1.9058872
2.2200568 1.4381973 0.07542263 0.22609335 0.35990128 0.503075 0.5988923 0.6195784
0.34713256 0.3161441 0.25991252 -1.7124568 -0.9100967 -0.5704434 -1.6398233 -0.40171218
0.33352247 0.22669336 -1.6033919 -0.41783243 -0.5576523 0.39435214 0.3888438 0.21987112
-0.24780229 0.8557028 1.0375754 0.6010392 1.04025 -0.78475404 -1.5005765 0.084848195
0.9269711 0.18968543 -0.03386973 2.207611 1.6490237 1.6483412 0.8077002 0.6530242
-2.832605 0.946309 -0.68379563 -0.69494814 -0.25281504 -1.6285039 -1.1832104 -0.31471944
-0.2514133 -0.11946635 0.1063109 0.21617463 0.34591448 0.088893406 -0.020181065 0.16064031
1.0967811 2.6318927 1.4629483 -1.630806 -1.5468723 -0.9296276 -1.2811344 -1.9431694
0.42564693 -0.42282203 0.75465363 2.201183 -1.7849056 0.54554105 1.1003203 -2.289219
-1.0072986 0.7370664 0.11037074 0.8674701 -2.4541178 3.2429254 -3.1194806 3.4673672
0.5676436 -2.229244 1.3008871 0.27966475 0.66105574 0.4360159 -0.45950627 1.6469132
1.2790939 -2.0322738 0.20741475 0.031780213 -0.38794434 -1.7924683 -0.90908766 1.0616217

layer1.0.bn1.weight f4 [16]
00000000: f2ef 7540 7649 4740 7b04 1440 676e ba3f
00000010: 4625 a83f af9a b03f 2b60 0640 79c0 1240
00000020: 052e e93f ed39 5940 62c1 9d3f 4424 0e40
00000030: a2ed 8040 894f 9a3f bc6f 963f 41c3 c93f
3.84277 3.1138587 2.3127735 1.4564942 1.3136375 1.3797206 2.0996196 2.2929976
1.8217169 3.3941605 1.2324641 2.2209635 4.029008 1.2055522 1.1752849 1.5762712

layer1.0.bn1.bias f4 [16]
00000000: 3659 1c40 9c00 0840 469d 3dbf 9730 7fbf
00000010: 73df 773e 845e 2dbe 80be 94be 3ee4 61bf
00000020: a54d 97be be50 0b40 49fe 01bf 79a3 8cbe
00000030: 1339 1d40 5b6a 7bbf eac5 5abf 987b bcbe
2.442945 2.1250372 -0.74068105 -0.9968352 0.24206333 -0.16930586 -0.2905159 -0.88238895
-0.29551426 2.176803 -0.50778633 -0.2746847 2.4566085 -0.9820916 -0.8545824 -0.36813045

layer1.0.bn1.running_mean f4 [16]
00000000: ae83 dbbf 688e cfc1 9e36 00c2 abb5 ee41
00000010: a8fa 48c1 72d9 d8c1 4280 18c2 7092 57c2
00000020: 517c 88c2 5f6f 1bc2 e7ff 24c2 374f 94c1
00000030: a8e7 93c1 6e2b b441 a857 83c1 d830 6cc2
-1.714956 -25.944534 -32.053337 29.838705 -12.561195 -27.106174 -38.12525 -53.893005
-68.242805 -38.85876 -41.249905 -18.53868 -18.488113 22.521206 -16.4178 -59.0477

layer1.0.bn1.running_var f4 [16]
00000000: 6beb 5644 3363 e443 3bc1 db44 774e 1b44
00000010: 6e73 1644 e85d 6d44 4fcb c344 d0fc 9a44
00000020: 13ab 9844 fbfd f443 71e2 5844 5d58 1345
00000030: 6db2 6844 31ee 4e44 d5c7 2d44 aadf d643
859.6784 456.775 1758.0385 621.226 601.8036 949.4673 1566.3534 1239.9004
1221.3461 489.98422 867.53815 2357.5227 930.7879 827.72174 695.1224 429.74738

layer1.0.conv2.weight f4 [16, 16, 3, 3]
00000000: a8d2 283f 6bf9 c13f 6e6a 66be 58e1 8bbe
00000010: 1a0a 41c0 1b28 ae3f a7c0 b9bf 4f2b 1440
00000020: c3c1 14bf 82d4 a43c c05c 993f 5002 09bf
00000030: 72e7 24bf 0a6c 3f40 e40f 06c0 5fa8 a83f
00000040: 9861 e0bf 8749 693f ff94 61be 566a bb3e
00000050: e898 67be a784 fb3e 2360 543f 1678 833e
00000060: ecd3 0bbe 4fd0 933e 342e b63f 8516 1bbf
00000070: 5990 d93e 0653 47be 6d23 583e 6da4 a63e
00000080: 05e8 2dc0 c90d 913e 0a11 cebc 958b ac3e
00000090: 78f1 e6bd 35cb 03bc 4ddf a7bf 5217 c3be
000000a0: 88cb 113e e56d a9be 18a6 0d3f 2520 adbf
000000b0: 93f2 76bf 77f5 423e c345 843f 2fe9 91be
000000c0: f84c 33bf 0801 05bf 230a a0bf 7268 efbf
000000d0: 074d 3dc0 4e47 cfbf 8b53 db3e 8cf3 7d3f
000000e0: e09f 20bf 8509 71be c2e5 253f 4bfe 993f
000000f0: e9a8 573d f98e d53f df51 0abc 0b74 a73f
00000100: 8c58 6540 675e 5bbf ecd5 f3be c9bc 3ec0
00000110: a106 31be 0f9c c43f 8dc9 e83f 2716 823e
00000120: 9aa0 693f c366 d0be 66eb 0340 6837 bebe
00000130: 03e7 033e 2a84 753d 6ec9 26bf 450d bcbd
00000140: 93c0 38bf fac2 b2bd cd08 793d 09ea 943f
00000150: 4990 42bf 7884 6540 aa5e 90bf 91f4 ac3f
00000160: 07d1 80c0 d5a8 1e3d e82b be3f 02d6 6cbe
00000170: ad74 d23e 67de e23f 014d 64bf 1c54 92be
00000180: e7de 963f c083 f3bd dd82 513f 89b1 7fbe
00000190: 13aa 1abf b998 3b3f da95 7abf 4a1f 673f
000001a0: a518 983f afe2 ba3e 6993 7d3d 611b a3bc
000001b0: 2628 2f3e b8a2 f8be 4985 4b3c 850c 1b40
000001c0: ad2a aec0 b67b 993f 2409 88bf e112 4340
000001d0: b2dc a9be 310b 403f 7c29 413f 2b79 bcbf
000001e0: b269 433e 4eb4 a03f 6f73 02c0 519a 98bf
000001f0: 1e9d 813f d3a5 d0bf 8174 5a3e 61e0 a63e
00000200: 6ead 9e3e 56a7 9dbe 3267 063e 89f3 8b3e
00000210: 3b81 2bbe a1b8 523f 8f71 943f 2f29 183f
00000220: 4ecd d33e f07d c1be d93e 1e3f f052 693e
00000230: 2dec 703f 9a98 7f3f cce8 e6be 6a57 d03f
00000240: 2205 44bd d4d2 6e3f 7890 813e 09ff a3bc
00000250: 48a9 7f3f cbc2 653f 832d 93be be4f 04be
00000260: c36f 553f cdd2 dc3f c986 2a40 9ecf c83f
00000270: e1d9 353f d530 88bf f759 8f3e 777d b4bf
00000280: a841 54c0 2c23 85c0 8e93 21be 3791 02c0
00000290: aef2 9abf 28d2 3cbf 3b63 d2bf f6af f03d
000002a0: 2b1f ce3e 0923 4f3f 067a c73f a7d9 0440
000002b0: b54e f13f ba95 0340 2f6e 4e3f 8528 053f
000002c0: 245f bfbd b015 eb3f 2e86 de3e 2867 51bf
000002d0: c5ad 36bf b609 413f 9a8b 0540 4f40 bfbb
000002e0: b31d bb3f 8bad a73f a9a5 d43f 337c 1340
000002f0: f969 963f f8ec d63f 6453 8e3f 2ebe 69bd
00000300: 4637 8fbf 9b0d f9bf e096 f8bf c817 0fc0
00000310: 4bcb 0dc0 258c cdbf 587a 8b3f afba 953f
00000320: 3556 563f 9760 1cbf ec83 83bf 792c 4bbf
00000330: 72e2 88bd 624a cdbf 60da 28bf a5ee 2abf
00000340: 4925 5cbf 442c babe c1f0 b5bd 6d9d a1be
00000350: 2050 6abf e1f5 863f 8c5a 273f 2a11 c5be
00000360: 6436 7dbe fb5b 7c3d 9ada 69bf 47ea 573e
00000370: 5a0a 9b3f c08e 813e 419e bcbe 925f 373f
00000380: 42e0 963e c6a0 3cbf bab4 fcbe 9f4b 09c0
00000390: f6b0 f33f 29d8 d33e 27d4 5a3e 1401 b73f
000003a0: de61 4340 3149 da3f 0494 6fbf 544a 81bf
000003b0: 7069 ebbf e432 a7bf f405 eabf 14b1 1ec0
000003c0: 7c1c 80be e863 8bbd f1f3 59be 3411 383f
000003d0: d94c 7cbf 9239 b5bf 06d1 e83c a524 a1bf
000003e0: fefd 11c0 a6d9 4b3f a005 92bf 0d0d 78bf
000003f0: 5a4b 7e3f 7164 913f 852e 853f 1607 2ebd
0.65946436 1.5154241 -0.22501537 -0.2732036 -3.0162416 1.3605989 -1.4511918 2.3151433
-0.58108157 0.020120863 1.198143 -0.53519154 -0.6441566 2.9909692 -2.09472 1.3176383
-1.7529783 0.9112782 -0.22029494 0.36604565 -0.22616923 0.49124643 0.82959193 0.25677556
-0.1365506 0.28869864 1.423285 -0.6058124 0.4249294 -0.19465265 0.21107264 0.32547322
-2.7172863 0.2833083 -0.02515461 0.33700243 -0.11276525 -0.008044054 -1.3115021 -0.3810373
0.14237797 -0.33091655 0.55331564 -1.3525435 -0.9646389 0.1903895 1.033379 -0.28498217
-0.7003932 -0.519547 -1.2503093 -1.8703749 -2.9578264 -1.6193635 0.42837176 0.9919975
-0.6274395 -0.23538788 0.6480371 1.2030729 0.05265132 1.6684257 -0.008442371 1.3082289
3.5835295 -0.8569092 -0.47624147 -2.9802725 -0.17287685 1.5360125 1.8186508 0.25407526
0.91260684 -0.407034 2.0612426 -0.37151647 0.12881093 0.059940495 -0.6515111 -0.091822185
-0.72168845 -0.08728595 0.06079941 1.1633922 -0.7600141 3.5862103 -1.1278889 1.3512136
-4.025516 0.03873523 1.4857149 -0.23128513 0.41104642 1.7724122 -0.8918 -0.28579795
1.1786774 -0.11890364 0.81840307 -0.24970068 -0.6041576 0.7327991 -0.97884905 0.9028212
1.1882521 0.3650107 0.06190816 -0.019910516 0.17105159 -0.48561645 0.012421914 2.4226391
-5.4427094 1.1990879 -1.062779 3.0480273 -0.3317619 0.75017077 0.75453925 -1.4724478
0.19083288 1.2555025 -2.0382955 -1.1922094 1.0126073 -1.6300606 0.21333505 0.32593063
0.3099169 -0.3079173 0.13125303 0.2733424 -0.16748516 0.8231297 1.1597155 0.5943784
0.41367573 -0.37791395 0.6181465 0.22785544 0.94110376 0.99842227 -0.45099485 1.6276677
-0.047856458 0.9329045 0.25305533 -0.020019071 0.9986768 0.89750355 -0.2874566 -0.12921044
0.8337366 1.7251831 2.6644766 1.568836 0.7103558 -1.0639902 0.27998325 -1.4100789
-3.3165073 -4.1605434 -0.15778944 -2.0401132 -1.210531 -0.73758173 -1.6436533 0.11752312
0.40258154 0.80912834 1.5584114 2.0757844 1.8852144 2.0560136 0.80636877 0.5201495
-0.093443185 1.8365993 0.43461746 -0.8179803 -0.713589 0.7540544 2.0866456 -0.0058365236
1.4618438 1.3099836 1.6613055 2.3044555 1.175109 1.6791067 1.1119199 -0.057066135
-1.1188743 -1.9457277 -1.9421043 -2.2358265 -2.215533 -1.6058394 1.0896711 1.1697596
0.8372529 -0.61084884 -1.0274634 -0.79364735 -0.06683816 -1.6038325 -0.65958214 -0.6677039
-0.8599439 -0.36361897 -0.08883811 -0.3156542 -0.9152851 1.0543786 0.6537254 -0.38489658
-0.2472778 0.061611157 -0.91349185 0.21085463 1.2112534 0.25304222 -0.36839488 0.71630204
0.2946797 -0.7368282 -0.49356633 -2.1452405 1.9038379 0.41375855 0.21369992 1.4297204
3.0528483 1.7053586 -0.9358523 -1.0100808 -1.8391552 -1.3062406 -1.8283067 -2.479558
-0.25021732 -0.06806165 -0.21284463 0.7190125 -0.9855476 -1.4158194 0.028419983 -1.2589308
-2.2811275 0.7962898 -1.1407967 -0.96894914 0.9933373 1.1358777 1.0404822 -0.042487226

layer1.0.bn2.weight f4 [16]
00000000: cc1c 7940 f4c8 b03f 67ad 8740 c86c 1040
00000010: a710 573f dee0 f33f 868d a03f 939d 2640
00000020: 7382 0640 3977 1240 3f72 d63f 7caf 3840
00000030: 5230 5040 b94f 3b40 21f8 ae3f 9c23 1340
3.8923826 1.3811326 4.2399173 2.2566395 0.84009784 1.9052999 1.254319 2.6033676
2.101712 2.2885268 1.6753615 2.8857107 3.2529492 2.926741 1.3669473 2.2990484

layer1.0.bn2.bias f4 [16]
00000000: c84c a23f 3731 90bf b814 69bd 7e8b b2bf
00000010: a294 333f 34ce 233e f8df bc3e 0db2 8c3f
00000020: ff76 ce3f 7d12 673e 2997 36c0 48a9 9d3e
00000030: 2455 1bbe a781 883f 4d4f f53f 2336 29bf
1.2679682 -1.1265019 -0.056904525 -1.394882 0.7014867 0.15996629 0.36889625 1.0991837
1.6130065 0.22565646 -2.852976 0.30793214 -0.15169197 1.0664567 1.9164826 -0.6609823

layer1.0.bn2.running_mean f4 [16]
00000000: 6023 b840 6630 5441 e830 88c0 79e5 223f
00000010: 4b53 b4c0 81d2 0640 0dfe fcbf c2a9 dac1
00000020: af56 ae41 aad0 30c2 24d1 66c1 abb1 96c2
00000030: 227c 3cc1 6e5b 6940 d6de 55c0 4ffa 5541
5.754318 13.261816 -4.25597 0.636314 -5.6351676 2.1065981 -1.976503 -27.33289
21.792326 -44.203773 -14.42606 -75.34701 -11.780306 3.6462054 -3.3417258 13.3736105

layer1.0.bn2.running_var f4 [16]
00000000: d162 7944 eae4 1744 b5d4 9545 0658 0045
00000010: 1d3e 4444 aea8 8e44 c432 7044 3dfe e444
00000020: 77fb d744 e910 d744 645c 4a44 ccbc ef44
00000030: a6d3 a344 0750 2845 cc58 9644 0825 6c44
997.544 607.5768 4794.5884 2053.5015 784.9705 1141.2712 960.7932 1831.945
1727.8583 1720.5284 809.4436 1917.8999 1310.614 2693.0017 1202.7749 944.5786

layer1.1.conv1.weight f4 [16, 16, 3, 3]
00000000: 3d35 c7bf ace2 b8c0 b7b1 e53f 43d5 0040
00000010: 8d56 4f3f 52a0 20c0 9504 5ebf 6c6c 83bf
00000020: 083b 02bf edfd cbbe 82ae da3e 2cbc 413f
00000030: 98c4 fdbe 1e67 e43e 99d0 573f 766f 48bf
00000040: cb46 f9be a49b c03d 3360 f1bf d8f2 c5bf
00000050: 80e1 8fc0 4b14 0ac0 e59e 96c0 dd6b 01c0
00000060: f9d5 30c0 8a20 d3c0 eb2a a23f 3d72 443d
00000070: f01c 2abd 7eba 2cc0 cb8d 0fbf bcca c13e
00000080: 7f45 673e 99d5 be3e 7fe7 76bf 5f7f 3fbf
00000090: 6f22 8fbf 4982 39bf f63e 39be f375 363d
000000a0: 5f42 6b3e d0e6 633f 456e 30be bc20 0a3f
000000b0: 102d 553f cfc6 0f3f ffb9 1dbe 7335 28bf
000000c0: 2b0c f43d a586 61bd a7ae 96bf c0b0 9abf
000000d0: a3bb 55bf eb6d 9fbe f7a2 36be ca7c f3be
000000e0: eee7 3ebf 7b32 c9be 8998 d73e 683e ef3e
000000f0: 71c5 4bbe bcbc 843f f5e1 853f 2d68 a3be
00000100: fade c2bf 5509 7abe 80ee 873f cc93 413f
00000110: 701c d4be beed 38be 0387 d6bf 0819 9f3e
00000120: 0ce4 b23f 0c5b 17bf a3ce 03bf 6726 a83f
00000130: e6ec ca3e 8301 46c0 6d66 003d 12f8 b9bf
00000140: 7e2e aabe c336 d4bf 15a1 1fc0 422a 52be
00000150: 8dc5 913f 0360 373e 2e29 373d f121 b8bf
00000160: d361 263f c7cf cd3f d903 813e 7aa6 22bf
00000170: 0346 d33e 419d 9b3e b3e0 6a3f 1324 f93d
00000180: 4f98 9d3f 488a 133f bf99 65bf 8f8c a7bf
00000190: bfe6 d2bf 238d 373f 1e61 b7be 9823 d1bd
000001a0: da85 083f 23f1 c83f 5bd5 c63f e8c6 6dbf
000001b0: 2e1c 26bf 93a4 803e 085c 5d40 1040 0dbf
000001c0: 8e86 66c0 b01a 75c0 f2ed 25c0 f6e7 28c0
000001d0: 8c94 7c3f 0703 10be 582f 52bf b65c 5a3f
000001e0: b099 2fc0 2e48 c3bf 5b20 1640 c5e7 1a3f
000001f0: c43f 803f 033a ac3f 8a9a cf3e e82b 6a3f
00000200: d13a c53d c7e8 45bf c563 e1bf ebf5 cabe
00000210: 3cc8 093f 3dd8 ea3e c12f f4bd 2f25 7cbf
00000220: 9100 ce3f 9803 6e3e ec79 643e 3d4b c5bf
00000230: 8950 dc3e fb40 013f 0785 0bc0 a13a c03f
00000240: 28a6 acbf db6a 0fc0 c69c 5d3e 4394 6340
00000250: d243 ecc0 fb1c 1740 67cb 0f40 d6a9 05c0
00000260: d887 133f c164 d63d 27c9 0c3e fb0f b4be
00000270: 7c31 133f bdf0 403f 33a3 8cbe 5ed0 433f
00000280: ea79 78bf b538 a5bf a91d 01c0 40ae 813f
00000290: 0acc 91bf d2b6 51bf 8bd3 0540 7bc0 27bf
000002a0: c6a9 41c0 6542 0b40 f16e 85bf 40fb 0fc0
000002b0: 96d3 843e 10fc c4be 1ac1 4fc0 7482 a53f
000002c0: 356c e53e 371c 3fc0 f138 533e f4a2 0cbf
000002d0: 3b52 093f 5bac 76be 1869 f93e b3d4 123e
000002e0: 81cc 0e3f bb79 5e3e c443 01bd 88cc 2d3f
000002f0: 8c1d 243c ba24 bd3c 3df5 053e db54 a13e
00000300: 7ba8 4b3e 2be4 d13d 4adf e03e ae9e d5be
00000310: e95c 3dbf 02ff 30be a3f3 0440 a559 ad3d
00000320: 274a 4c3f 7969 813f 1750 0fbf 860b 843e
00000330: 1959 9d3f 7302 aabe fe63 fd3e 33a4 7d3f
00000340: a526 ac3f 5c67 b8be 178b ab3f b9f0 7fbf
00000350: 32c4 fcbf b89d 153f c75e 05bf d282 4abf
00000360: 5cd6 b73f b041 bcbe 4028 5cbe 2f31 943f
00000370: 4f24 50bf 0ff4 0f3d d52c 493f 5ae7 7fbf
00000380: 3c3a 88bf b581 6fbe 818a a13f 0bd5 53c0
00000390: 8a0d b23e ddb4 0340 fbf8 3dc0 c855 873f
000003a0: 5158 d63f 88d3 73c0 d476 b33f e063 183f
000003b0: 78cd 21bf d76f 0540 f2eb c83e e0e4 48be
000003c0: 1bf7 1d3f 8d41 d9bf 9ce3 953f db76 1e40
000003d0: f7b3 01c0 8d59 81be 5033 3840 aec4 29c0
000003e0: 4aa7 423f fa65 1e40 37d0 babf 721b 013f
000003f0: ca31 febe b1b1 053e 542d c03e 5e6d b7be
-1.5563122 -5.77767 1.7944859 2.0130165 0.8099144 -2.5097852 -0.8672574 -1.0267463
-0.50871325 -0.39842167 0.42711264 0.7567775 -0.49564052 0.44609922 0.8430267 -0.78295076
-0.48686823 0.09404686 -1.8857483 -1.5464735 -4.496277 -2.1574886 -4.7068963 -2.0222085
-2.7630599 -6.597722 1.2669348 0.04796051 -0.041531503 -2.6988826 -0.56075734 0.37849987
0.22585104 0.37272337 -0.96446985 -0.7480373 -1.1182383 -0.72464424 -0.18090424 0.04454608
0.22974537 0.89024067 -0.17229564 0.539562 0.83271885 0.5616273 -0.15402983 -0.6570656
0.11916383 -0.055060048 -1.177205 -1.208519 -0.83489436 -0.31138548 -0.17835604 -0.47556144
-0.74572647 -0.39296326 0.42108563 0.467273 -0.19899537 1.0370097 1.0459582 -0.31915417
-1.5224297 -0.24417622 1.061966 0.75616145 -0.41427946 -0.18059441 -1.6759952 0.31073785
1.3975844 -0.591233 -0.5148718 1.313672 0.39633864 -3.0938423 0.03134768 -1.452883
-0.33238596 -1.6579212 -2.4942067 -0.20523933 1.1388413 0.1790772 0.044717006 -1.4385358
0.6499302 1.6079034 0.25198248 -0.63535273 0.41264352 0.30393413 0.91749114 0.12165084
1.2312106 0.57632875 -0.8968772 -1.308977 -1.6476668 0.7169973 -0.35816282 -0.10211867
0.5332924 1.5698589 1.5533861 -0.9288163 -0.6488675 0.2512556 3.4587421 -0.55175877
-3.6019626 -3.8297539 -2.592648 -2.6391578 0.98664165 -0.14063655 -0.8210349 0.85297716
-2.7437553 -1.5256402 2.3457248 0.605099 1.001946 1.3455204 0.4054759 0.91473246
0.09630359 -0.77308315 -1.7608572 -0.39640746 0.5382116 0.45868102 -0.11923171 -0.9849424
1.6093923 0.23243558 0.22312135 -1.5413586 0.43030193 0.5048978 -2.1799943 1.5017892
-1.3488207 -2.240897 0.21641836 3.5559242 -7.383279 2.3611438 2.2467897 -2.088491
0.57629156 0.10468436 0.13748609 -0.35168442 0.5749738 0.7536734 -0.2746826 0.7648982
-0.97061026 -1.2907931 -2.0174353 1.0131302 -1.1390393 -0.81919587 2.0910366 -0.65528077
-3.0259871 2.1759274 -1.0424482 -2.24971 0.25942677 -0.38473558 -3.246161 1.2930436
0.44809118 -2.986097 0.2062719 -0.54936147 0.536411 -0.24089186 0.48712993 0.14338951
0.557808 0.21726124 -0.031558767 0.67890215 0.01001681 0.023088802 0.13081832 0.31510052
0.19888489 0.10248598 0.43920356 -0.41722625 -0.73969895 -0.17284778 2.0773704 0.08464364
0.7980065 1.0110313 -0.5598158 0.25790042 1.2292815 -0.33204994 0.4949035 0.99078673
1.3449293 -0.36016357 1.3401822 -0.9997669 -1.9747374 0.58443785 -0.52097744 -0.79105866
1.4362292 -0.36768866 -0.21499729 1.157751 -0.813054 0.03514486 0.78584033 -0.9996239
-1.0642772 -0.23389323 1.2620393 -3.309878 0.34775954 2.057914 -2.9683216 1.0573053
1.6745702 -3.8097858 1.4020638 0.595274 -0.63204145 2.0849512 0.39242512 -0.19618559
0.6170518 -1.697313 1.1710086 2.4760044 -2.0266092 -0.25263634 2.8781319 -2.6526294
0.7603651 2.4749742 -1.4594792 0.50432503 -0.4964736 0.13056065 0.37534583 -0.35825628

layer1.1.bn1.weight f4 [16]
00000000: 7ca0 0740 2edd 2840 c150 2340 1436 e53f
00000010: 2ff8 f63f 5548 f53f 838e 3240 6c51 1d40
00000020: 8264 d23f d7f2 dc3f 9cf0 0340 4d28 de3f
00000030: de4c 5540 1f65 d43f 7851 ad3f b011 f23f
2.1191702 2.6384997 2.5518038 1.7907128 1.929449 1.9162699 2.7899482 2.4580946
1.6436923 1.7261609 2.0615606 1.7356049 3.3328166 1.659336 1.3540487 1.8911648

layer1.1.bn1.bias f4 [16]
00000000: f324 21bf b28c 0cbf f2be 45bf 9a64 6cbf
00000010: add9 7cbf 6a75 c1bf b81c 05bf ec4c 85bf
00000020: 5688 0bbf b189 88bf 796e e8be cc88 96bf
00000030: 1093 9dbe 5fe7 bfbf c5b1 edbf e982 48bf
-0.62947005 -0.54902184 -0.77244484 -0.92341006 -0.98769647 -1.5113957 -0.51996946 -1.04141
-0.5450491 -1.066702 -0.45396784 -1.1760497 -0.30776262 -1.4992484 -1.8569876 -0.78324753

layer1.1.bn1.running_mean f4 [16]
00000000: 76f9 d4c2 4b45 8dc1 be03 9cc2 9539 5cc2
00000010: badc d8c2 7db2 65c2 c3d0 a7c2 cbcb 9cc2
00000020: 617a 84c2 a680 d2c2 8929 93c2 79a9 84c0
00000030: b0b0 d5c1 b471 42c2 6c0d 84c1 db5a abc2
-106.48723 -17.658834 -78.00731 -55.056232 -108.43111 -57.424305 -83.90774 -78.39803
-66.23902 -105.25127 -73.58112 -4.1456876 -26.711273 -48.61104 -16.506554 -85.67745

layer1.1.bn1.running_var f4 [16]
00000000: 154b 9045 e067 8645 3653 a645 ddf9 be44
00000010: aea1 2d45 8248 5f45 509a fb45 da20 a345
00000020: e45b 0546 f921 8445 b9fe 8045 1992 7645
00000030: 6e13 e545 ab53 1f45 5073 2345 cf8d a745
4617.3853 4300.9844 5322.4014 1527.8082 2778.105 3572.5317 8051.289 5220.1064
8534.973 4228.2466 4127.8403 3945.131 7330.4287 2549.2292 2615.207 5361.726

layer1.1.conv2.weight f4 [16, 16, 3, 3]
00000000: 6eb6 913f 9767 7cbe e8a3 953f 11a4 3f3f
00000010: b7e8 4b40 f4de db3e 58ef 5b40 a654 8d3f
00000020: 9e7c f1bf 315a 98be 6f18 5fbf 366a 21bf
00000030: cf27 60bf 9f54 4a3f 4870 0f3f e80f 0ac0
00000040: b17b 7840 8b61 51bf 04e9 d5bf 7f04 16c0
00000050: ed4c 2cc0 9e8f c93e 9ece babe 0d10 f0bd
00000060: 5043 8ebd d5d9 ecbf bfee 16bf 5289 14c0
00000070: 997c 833f 1ea3 b73f ec70 683e d143 993f
00000080: 1df0 ee3e ad76 65be ca92 d9bf 2d16 88bf
00000090: 7ebd 2040 0143 913f cc5c 8bbf 0518 c23f
000000a0: 4a9f 1c3f 7a2e b8bf efc7 04c0 d1d9 123f
000000b0: 7cd8 8cbe 5b38 21bf 0b56 13bf 9ee8 683f
000000c0: b459 45bc 2645 3cbf fe19 3ebf 2b3f 34bf
000000d0: fac8 82bf 2660 e03e 126c 843f f611 01bf
000000e0: e326 0cbd 1a58 133f c4d6 1040 4f21 bbbe
000000f0: a924 3d40 d632 c9be 72a9 b9be df23 cf3b
00000100: 71a2 873c 16e4 83bf 9b09 b03e 621f 9740
00000110: 1949 4d3f 660d c03f 77c1 4ec0 f868 4f40
00000120: 4d33 8b3f b1b4 e73e 5028 d73f 90c6 a1bf
00000130: 346e dc3d b3f5 d53e 1996 06bf eebc 613f
00000140: ef2d dd3f eddc dfbe 0669 0dbf 4687 44bf
00000150: 395b 203f 8805 41bf 43db 193f db11 48c0
00000160: a115 e1bf dff2 183e 290a 17bf 6a76 4540
00000170: f368 b83f e93a 4140 ab75 3740 d53c 1b3e
00000180: 9d98 1640 cdbb 2bc0 0177 2d40 5afb 703e
00000190: 1559 a3bf 2bed 40bf 9489 e3bf 4001 94bf
000001a0: 06a3 2b3e 9cc7 8ebf d047 46bf 4358 0abe
000001b0: 537c b6bf 75b0 36bf 619c 2a3f 5fe9 b9bf
000001c0: 7cd7 6cbf f6e8 30bf 219d 0e3f 110c ccbe
000001d0: 0000 b8be 8399 8bbe b26d 38bf c017 5e3f
000001e0: 9d19 abbe c20c 06c0 f1ec 8fbf 0ad6 95bd
000001f0: 9008 24bf 8318 793e 0dbf f83e 7f84 babe
00000200: 2ba0 b13e 374e 30bf 1f52 77be e9f2 acbd
00000210: b84b e23d d5a0 b03f a570 9ebd 0536 aa3d
00000220: 2ac3 6bbf a474 1d3f 8a8b eabe c3c0 09c0
00000230: e38c a5bd 70a7 303c 1685 a9bf 9d73 113e
00000240: c843 d73f 9a6a e83e 8c29 db3d 38dc d93f
00000250: 54e6 853c 3ffe eabe 34c0 ae3f 28c5 5b3f
00000260: 6bac 893e 8eaf a2bf b8b3 74be b434 583f
00000270: e605 6abf b1ba 8bbd 22d6 633f 6590 b2bc
00000280: fbe7 df3f cb28 3440 cda1 fabf 82a6 d3be
00000290: 1679 a6bf 5b07 d9bf 3f04 c4bf 0698 d5bf
000002a0: 511d 9abf c320 06bf 86dd 81bf 7060 c6be
000002b0: 702c 073f 588e 69bd 5629 d93f 6e1f 0b40
000002c0: a817 0140 37a5 1740 854d 2440 c5c6 2640
000002d0: 7ba3 8d3f d649 4a3f 70c9 5abf 260d b73f
000002e0: 5c21 863f e197 dbbe 6df5 dc3f 1c91 5c3f
000002f0: 82e1 97bf bc44 fbbf 1d4b b0bf 3655 1dc0
00000300: 0b1b b7be dd57 a13e 8b32 14bf 0177 a23f
00000310: 48b5 d03f 30e6 d23e 7666 3ebf 9979 463e
00000320: a7a5 f5be a717 24bf d3af dbbf b57c 3cbf
00000330: 7349 093e 20cf 613f 24fc 86bb 5f09 c4bf
00000340: b02d 3cc0 63cc 1bc0 5599 4ac0 4256 74c0
00000350: fb7a 13c0 6449 afbf 8132 1cc0 0791 66bd
00000360: eda2 25bf 1a16 a8bd 7397 36bf 589a 833f
00000370: 284a ff3f f5ed 8d3f eef7 ffba 2023 7b3f
00000380: c718 883e 9023 a73f b261 903f 5820 4e3f
00000390: 18b7 2440 d5eb 1c40 e9c5 1e40 880a 5a3f
000003a0: 301a 6c3f 234b aa3e f10a 823f c24c 04bf
000003b0: ee74 05c0 3203 5a3f 97ce 8bbf 73be 81bf
000003c0: 2245 0cbe f0d8 32bf 980a cd3e 5ef9 04c0
000003d0: f4a9 29bf 45fb 383e aa8f 6ac0 9222 14c0
000003e0: 6921 9abf 4978 79bf d1a3 5f3e 12d9 f43e
000003f0: 4d60 61bf 9396 203f 3003 7dbe 9a75 1dbf
1.1383798 -0.24648891 1.1690645 0.7485972 3.1860788 0.42943537 3.4364834 1.1041458
-1.8866155 -0.2975631 -0.8714666 -0.6305269 -0.87560743 0.7903537 0.560307 -2.1572208
3.8825495 -0.81789464 -1.6711736 -2.3440244 -2.6921952 0.39367384 -0.3648576 -0.117218114
-0.069464326 -1.8503977 -0.5895805 -2.3208814 1.0272399 1.4346654 0.22699326 1.1973821
0.46667567 -0.22408552 -1.6997921 -1.0631768 2.5115657 1.1348573 -1.0887694 1.516358
0.61180556 -1.4389184 -2.074703 0.5736361 -0.27508914 -0.62976617 -0.57553166 0.90979946
-0.012045313 -0.7354301 -0.7425841 -0.70408887 -1.0217583 0.43823355 1.034548 -0.5041803
-0.034216773 0.5755631 2.2631083 -0.3654885 2.9553626 -0.39296597 -0.3626209 0.006321415
0.01655695 -1.0303981 0.34382328 4.722581 0.80189663 1.5004089 -3.2305582 3.2407818
1.0875031 0.45255044 1.6809177 -1.2638721 0.10763207 0.41789016 -0.5257278 0.8817891
1.7279643 -0.4372324 -0.5523838 -0.7676891 0.62639195 -0.75399065 0.6010019 -3.1260898
-1.7584726 0.14936398 -0.5899988 3.0853524 1.4407028 3.0192206 2.866557 0.15159924
2.3530648 -2.6833375 2.7103884 0.23533383 -1.2761561 -0.7536189 -1.777636 -1.1562881
0.16761407 -1.1154666 -0.7745333 -0.13510232 -1.4256691 -0.71363 0.66644865 -1.4524344
-0.92516303 -0.6910547 0.5570851 -0.39852956 -0.359375 -0.27265558 -0.7204238 0.8675499
-0.3341798 -2.0945287 -1.1244184 -0.07316215 -0.64075565 0.24325757 0.4858326 -0.36429211
0.3469251 -0.68869346 -0.2415242 -0.08444769 0.110495985 1.3799082 -0.07736329 0.08311085
-0.9209467 0.61506104 -0.45809585 -2.1523902 -0.08083513 0.010782108 -1.324374 0.14204259
1.681756 0.4539383 0.10701284 1.702033 0.01634518 -0.458971 1.3652406 0.8584771
0.26889357 -1.2709825 -0.23896682 0.8445542 -0.9141525 -0.06822718 0.88998616 -0.021797368
1.749267 2.8149898 -1.9580628 -0.41337973 -1.3005702 -1.695537 -1.5313796 -1.6687019
-1.2040197 -0.5239374 -1.0145729 -0.3874545 0.5280218 -0.057020515 1.696574 2.1737933
2.0170689 2.369459 2.5672314 2.605882 1.1065515 0.79018915 -0.8546362 1.4300888
1.047893 -0.42889312 1.7262398 0.8615892 -1.1865695 -1.9630351 -1.3772923 -2.4583259
-0.3576282 0.31512347 -0.5788962 1.2692567 1.6305323 0.41191244 -0.74375093 0.19382323
-0.47977945 -0.6409859 -1.7163032 -0.7362779 0.13406925 0.8820667 -0.004119413 -1.531536
-2.9402885 -2.4343498 -3.1656086 -3.8177648 -2.3043811 -1.3694272 -2.4405825 -0.056290653
-0.6470173 -0.082073405 -0.71324843 1.0281477 1.9944506 1.1088244 -0.0019528845 0.9810047
0.26581404 1.3057728 1.1279814 0.805181 2.5736752 2.451894 2.4808295 0.8517232
0.9222746 0.3326045 1.0159589 -0.51679623 -2.0852618 0.85161126 -1.0922421 -1.0136245
-0.13698247 -0.6986227 0.40047145 -2.0777202 -0.6627495 0.18064602 -3.6650186 -2.31461
-1.2041446 -0.97449166 0.21839835 0.47821862 -0.8803757 0.6272976 -0.24708247 -0.6150757

layer1.1.bn2.weight f4 [16]
00000000: a0be 1840 acea 1c3f d9f0 d03f 3c0c cc3f
00000010: 09f4 8e3e 7a71 f83e 8424 2d3f 0b09 183f
00000020: 6374 313f 3593 5b40 ab9f bc3f 4b1f f43f
00000030: 6735 c83f 21d3 de3f 59a0 383f 6ea6 d43f
2.3866348 0.6129558 1.6323501 1.5941234 0.2792056 0.48524076 0.67633843 0.593888
0.6931822 3.4308598 1.4736227 1.907205 1.5641297 1.7408181 0.7211967 1.661329

layer1.1.bn2.bias f4 [16]
00000000: 5461 86c0 8d80 063f a8e2 0a40 0ce2 413f
00000010: 522f f6be c4e3 49bd 3dbd 183f df00 843f
00000020: 5bc2 6dbf 514a 583f 1c2b 3ebf 7cca 82bf
00000030: 81e9 14c0 c756 8cbf 7e20 41bf d4aa 07be
-4.199381 0.525399 2.170084 0.75735545 -0.48082978 -0.04928948 0.59663755 1.0312766
-0.9287469 0.844884 -0.7428453 -1.0218043 -2.326752 -1.0963982 -0.75440204 -0.1324876

layer1.1.bn2.running_mean f4 [16]
00000000: 15ac 7d40 5a62 11c1 8788 6bc0 38da 993f
00000010: 92cc 583e 222b a240 12f4 ad40 0dda af40
00000020: 9013 0842 c76b 10c2 023f a640 8213 00c1
00000030: 7311 ebbf 0e33 c341 f811 953f e463 54c1
3.963628 -9.086512 -3.680208 1.201972 0.21171787 5.067765 5.4360437 5.4953675
34.019104 -36.10525 5.1951914 -8.004763 -1.83647 24.39993 1.1646109 -13.274387

layer1.1.bn2.running_var f4 [16]
00000000: 9a0d a443 47a8 0644 dd2d f643 83a4 de43
00000010: 03a8 0544 5e4f c943 6e22 c043 aa64 f043
00000020: 5007 7444 b4d1 9044 0ae3 d043 2182 c343
00000030: e329 a943 a79e 3a44 c46e 7544 7c24 ae43
328.10626 538.62933 492.3583 445.28525 534.6252 402.62006 384.26898 480.78644
976.11426 1158.5532 417.77374 391.01663 338.32724 746.47894 981.7307 348.28503

layer2.0.conv1.weight f4 [32, 16, 3, 3]
00000000: d4be 16bf ded8 60c0 0886 13c0 e29d e0bf
00000010: b74b 5dc0 7aea 2bc0 1ebc d9bf 5284 62c0
00000020: 7e25 29c0 4eae 0ec0 a849 90bf 5b54 21bf
00000030: 74cc f9bf 7eab 5dbf 4fb0 2abd ed35 abbf
00000040: c340 82bf 89b0 afbe 6e19 14be a6ef 1bbf
00000050: 9186 ab3e 5431 9fbe ccdd 9dbe 6005 af3e
00000060: c7a3 12bf 2696 90bf e6f8 80bd 0662 9d3f
00000070: cd78 d23e aa67 8cbe f094 bd3f e34c 8e3f
00000080: ebdb 223e d21c 1340 698c 4b3f d399 23bd
00000090: b118 e9bf c3e1 febf b277 b5bf 303b 3bbf
000000a0: 3227 88bf d1f8 afbe 18e1 aa3a 1ee3 2ebf
000000b0: 6399 3ebe 898b 0dbf 46ef 8d3e b716 d53f
000000c0: b465 b9be f0b9 bbbd f024 d83f 5dd6 9fbf
000000d0: d497 05bf 36b5 943f 1b0c 2cbf 5f93 efbf
000000e0: f058 8abf db30 dcbf 8657 c4bf 669f 9cbf
000000f0: 97ba 56bf 9b18 32bf cc47 babf 66e5 95bf
00000100: 8027 4bbf 6697 dfbd d1f2 ebbf 3d18 a3bf
00000110: 1624 3cbf 1235 5cbf 9a6a 05bf 701e 92be
00000120: 7470 27bc e5a4 efbf c4a4 18bf f854 cebf
00000130: f46a 1cc0 73bd fdbf 19ca c1bf 805e 33c0
00000140: 2865 b4bf 808e b3bf 652f bf3f 969b 573f
00000150: f088 163f 609f 2740 c2aa ac3f 0fd3 833f
00000160: 1a65 1440 8e3e 213f 7a73 263f 55ac 82be
00000170: 636e 39bf 3197 1dbf a8dd cebf 1c42 9abf
00000180: 2f00 75bf 6630 0ebf b12e 1b3e 2e54 db3f
00000190: 5c3c 47be 84be 493f f1b3 203f 3662 f23e
000001a0: 68ab 5f3f 5f9e 4e3f 343e 9fbd 6cdc 9d3f
000001b0: db99 80bf ff61 32bf 60d2 b1bf 5937 d0bf
000001c0: 5a14 2fc0 39d2 49bf b0e9 04c0 6d96 2ac0
000001d0: 2626 21bf f770 e3bf 499a 28c0 88aa ecbf
000001e0: b62a 1cc0 48e4 38c0 9d6c 9dbf b492 01c0
000001f0: 31c5 06c0 7f0f 1dbf 7ebf 35bf d2d5 22bf
00000200: 418b 13be f839 a8bf a708 38bf 2253 43be
00000210: 041f d0bf e149 0cbf 9d82 413e 8b99 32be
00000220: e110 293f f743 613f 184d 81be fec4 c13e
00000230: a6aa 8ebd e717 0ebf 82fc 60bf 9312 133f
00000240: 2001 4ebf fc28 c9bf 3193 eebf b442 9cbf
00000250: 2dd5 adbf 1463 b5be abee 2f3d 91d5 e4bd
00000260: be9a 903e b4ef 18bf ac6a 8fbf 4c7a 8dbf
00000270: b350 91bf 5dc2 c7bf c3dd 90bf e702 12bf
00000280: 89b4 08bf e427 0cbf 0456 eb3d 011b 723f
00000290: b770 283f f91a 373e a1a3 433f d1e1 173f
000002a0: ae59 9d3c 6509 abbe b72a 9b3f 296c 58bf
000002b0: 15cc 08c0 04a2 7abf f1b2 aebf ecce 49bf
000002c0: f39e 873f a0c2 8abe dc22 073f 1371 9a3f
000002d0: 5f9c e2bd b67f 093f 2e7f ca3f 7f22 a4bf
000002e0: 12d6 ebbe e8c9 173f 411f 3ec0 3606 1bc0
000002f0: 50dc d6bf 2738 28c0 911a 40c0 85a2 17c0
00000300: 4352 f8bf c4d1 47c0 dc22 2ec0 34fb a93f
00000310: 0487 dabe 55bb 203f 29af e13f 77c5 9a3f
00000320: dfe3 ef3e cf7d af3f 81da 743e 3478 193f
00000330: 5c97 de3a cb00 02c0 82d3 efbf 82e1 f0bf
00000340: 5979 dbbe 35af ecbd c049 4abf e131 313f
00000350: 497e 1bbe 647f 953d ea77 253f eea8 f6be
00000360: 305a 33c0 ed0d 47c0 b7f1 26c0 fe85 0ac0
00000370: c44c 73bf e1aa e7bf 42da b03e 0c20 adbd
00000380: 0118 343e 267b c63f e036 ec3f bf4c a03f
00000390: 640b 2640 7371 8740 4220 a740 b16a 643e
000003a0: 4453 c83f b168 d23f 04e6 ef3e 4900 c93e
000003b0: 6a78 823f d101 10c0 3520 1cc0 6a70 0fc0
000003c0: 57f3 d6bf a058 16c0 3834 fdbf aad1 ccbf
000003d0: 6105 8bbf affe d43d 9a5d 24c0 144c 31c0
000003e0: f750 37c0 4d1d 16c0 3c86 00c0 8c48 eebf
000003f0: 578e a3be a9e4 ce3f b5a4 7c3f 36b9 e73e
-0.5888493 -3.5132365 -2.3050556 -1.7548182 -3.4577463 -2.6861863 -1.7010534 -3.5393262
-2.6429133 -2.2293887 -1.1272478 -0.6301934 -1.9515519 -0.865898 -0.041672047 -1.3375832
-1.0176014 -0.34314373 -0.14462826 -0.6091255 0.33501104 -0.31092322 -0.3083328 0.34183788
-0.57281154 -1.1295822 -0.062974736 1.2295539 0.4110779 -0.2742284 1.4811077 1.1117214
0.15904205 2.298634 0.79511124 -0.03994162 -1.821066 -1.9912647 -1.4177153 -0.7313719
-1.0636961 -0.3436952 0.0013037054 -0.68315303 -0.186132 -0.5529104 0.27721614 1.6647557
-0.36210406 -0.09166324 1.6886272 -1.2487293 -0.52184796 1.1617801 -0.6720597 -1.8716849
-1.0808392 -1.720241 -1.533921 -1.2236145 -0.83878464 -0.69568795 -1.4553161 -1.1710632
-0.7935715 -0.10917549 -1.8433477 -1.2741772 -0.7349256 -0.8601848 -0.52115786 -0.28538847
-0.010219682 -1.8722197 -0.5962641 -1.611968 -2.444028 -1.982344 -1.51398 -2.8026428
-1.409337 -1.4027863 1.4936339 0.8422178 0.588027 2.6191025 1.3489611 1.0298785
2.3186707 0.62986076 0.65019953 -0.25522104 -0.7243406 -0.61558825 -1.6161394 -1.2051425
-0.95703405 -0.555426 0.1515453 1.7135065 -0.19456619 0.7880633 0.6277457 0.47340554
0.8737092 0.80710405 -0.07775536 1.2332892 -1.0046953 -0.6968078 -1.3892326 -1.6266891
-2.7356172 -0.788364 -2.0767632 -2.6654313 -0.62948835 -1.7768849 -2.6344168 -1.8489542
-2.4401069 -2.8889332 -1.2298771 -2.024579 -2.1057856 -0.6135177 -0.7099532 -0.63607514
-0.1440859 -1.3142691 -0.718882 -0.19074681 -1.6259465 -0.5480023 0.18897481 -0.17441384
0.6604138 0.8799433 -0.2525413 0.37845606 -0.06966142 -0.5550522 -0.87885296 0.57450217
-0.80470467 -1.5715632 -1.8638669 -1.2207856 -1.3580681 -0.35427153 0.04295222 -0.11173547
0.2824306 -0.5974076 -1.1204429 -1.1052947 -1.1352752 -1.560619 -1.1317676 -0.5703568
-0.53400475 -0.5474837 0.114910156 0.94572455 0.6579699 0.17881383 0.7642155 0.59328943
0.019207802 -0.33405605 1.212241 -0.8454004 -2.1374562 -0.97903466 -1.3648359 -0.7883136
1.0595382 -0.27101612 0.52787566 1.2065758 -0.11064982 0.53710496 1.5820062 -1.2823027
-0.4606176 0.5929246 -2.9706576 -2.422254 -1.6785984 -2.6284273 -3.0016215 -2.3692944
-1.9400104 -3.122178 -2.7208776 1.3279786 -0.42681134 0.62785846 1.763158 1.2091511
0.4685354 1.3710269 0.23911478 0.5994904 0.0016982364 -2.0312984 -1.8736422 -1.881882
-0.42866018 -0.115568556 -0.79018784 0.69216734 -0.15184893 0.072996885 0.646361 -0.48175758
-2.8023796 -3.110225 -2.608503 -2.1644282 -0.9503901 -1.8099023 0.34541517 -0.08453378
0.17587282 1.5506332 1.8454247 1.2523421 2.5944452 4.232599 5.2226877 0.22306325
1.5650411 1.6438199 0.46855175 0.3925803 1.0192997 -2.2501109 -2.4394658 -2.2412362
-1.6793011 -2.3491592 -1.9781561 -1.6001484 -1.0861017 0.104001395 -2.568213 -2.7702684
-2.8643167 -2.3455384 -2.008193 -1.861589 -0.31944534 1.6163532 0.98688823 0.45258492

layer2.0.bn1.weight f4 [32]
00000000: 0276 4940 7b04 1d40 50ab 0c40 b8cb f83f
00000010: 6ef1 e33f 2048 0940 5007 f43f 5508 1140
00000020: 0bf3 2440 9d27 fc3f 1b25 dd3f 1c21 3640
00000030: 63e0 0a40 8bae 2440 8183 f83f 0cb1 df3f
00000040: 5bbd dc3f f9e9 2540 c1ef e93f 258a 0e40
00000050: 2e62 3440 547c 2a40 5fbe aa3f 6322 0f40
00000060: 473a 0740 b168 d33f fede 1140 cf29 fb3f
00000070: 7a2d 0a40 b0a8 4940 126f e93f 5a39 f83f
3.1478276 2.4533985 2.197956 1.943717 1.7808053 2.1450272 1.9064732 2.2661335
2.5773342 1.9699589 1.7276949 2.8457708 2.1699455 2.5731533 1.9415132 1.7475905
1.7245287 2.5924056 1.8276292 2.2271817 2.8184924 2.6638384 1.3339347 2.2364738
2.112932 1.6516324 2.2792354 1.9622134 2.1590257 3.1509209 1.8237021 1.9392502

layer2.0.bn1.bias f4 [32]
00000000: c0c3 7bbf 8136 9fbf 8756 77bf d04f 26bf
00000010: 4ced 95bf dbd7 0dbe 84fd 88be b6e4 1abf
00000020: e8f0 78bf e1af d3be 9948 d33d ad55 4b3f
00000030: 6355 92be ea9c c0be be81 babd 3cbf bcbe
00000040: 08b1 f5be 2f34 d5be b6c1 9f3f 4072 ed3c
00000050: a1da 56bf 2ef8 afbf 849e 213e 07c7 13bf
00000060: 482e fa3e 6c29 02bf dded 5b3f 671e 04bf
00000070: 1183 51bf 1fd1 f0be 97a4 c63e 6efa ec3d
-0.98345566 -1.2438508 -0.96616405 -0.64965534 -1.1713042 -0.13851874 -0.26755917 -0.60505235
-0.97242594 -0.41345122 0.10316581 0.79427606 -0.2858077 -0.37619716 -0.091067776 -0.3686465
-0.47986627 -0.41641375 1.2480991 0.028985143 -0.8392735 -1.3747613 0.15783125 -0.57725567
0.48863435 -0.50844455 0.85909826 -0.5160889 -0.81840616 -0.47034547 0.38797447 0.11571203

layer2.0.bn1.running_mean f4 [32]
00000000: 9107 22c3 6495 18c2 4163 f7c2 1ece 9ac2
00000010: aba4 9d42 5c84 2e42 20c5 19c1 f71f 45c2
00000020: c2e4 ac41 e267 15c1 4b6b 8ec2 2acc bec2
00000030: 342d 57c2 db3e 3bc2 a7c1 15c3 cd6e c33f
00000040: a239 1c42 8d13 3dc2 6c9c 39c3 19a8 a6c2
00000050: 5c3f 31c3 fa02 6ac2 2e78 f941 3aad efc0
00000060: e43a 07c2 cb7f 1a42 02a6 3fc2 b5bc 4643
00000070: 17d2 2542 842a 8ac2 4b14 8942 11ed 58c2
-162.02956 -38.14589 -123.693855 -77.40257 78.82162 43.629257 -9.610626 -49.281216
21.611698 -9.337862 -71.20956 -95.39876 -53.794144 -46.811382 -149.75645 1.5268189
39.056282 -47.269093 -185.61102 -83.328316 -177.2475 -58.502907 31.183681 -7.489896
-33.80751 38.624798 -47.912117 198.73714 41.455166 -69.08304 68.539635 -54.23151

layer2.0.bn1.running_var f4 [32]
00000000: 42bd ca45 e89f af45 73c9 8c45 9409 8245
00000010: c4e2 0845 fac5 7345 9308 2d45 c22e 6945
00000020: b20e 4545 d5cb 4845 e900 9445 bdd3 f145
00000030: 1675 a845 f03a 9d45 7eaa 4945 c5ec 7e45
00000040: 44a2 5445 6083 4f45 610d 9345 df5b 8445
00000050: d87f 9a45 5d01 3345 fcb5 6345 6d1d 6445
00000060: b228 a645 9e36 0945 de9c ad45 9a02 8445
00000070: 548a 3945 7fac 0c46 8fb4 9145 aefe 4945
6487.657 5619.9883 4505.181 4161.1973 2190.1729 3900.3735 2768.536 3730.9224
3152.9185 3212.7395 4736.114 7738.4673 5390.6357 5031.367 3226.6558 4078.798
3402.1416 3320.211 4705.6724 4235.484 4943.9805 2864.0852 3643.374 3649.839
5317.087 2195.4136 5555.6084 4224.325 2968.6455 9003.124 4662.57 3231.9175
